acmodel/half.pth (torch, 112335 bytes, 8 tensors)

linear_relu_stack.0.weight f2 [100, 299]
0.04495 0.03035 -0.02359 0.015495 -0.03513 -0.00583 -0.02118 0.01519
-0.03195 0.009865 -0.0154 0.02892 -0.005527 0.1271 -0.08435 0.04013
0.003113 0.001247 0.03024 0.003187 0.00988 0.00264 0.02469 0.00876
-0.003157 0.02258 0.1259 -0.05048 0.03592 0.011086 0.01396 0.004078
0.0075 -0.02841 0.01804 0.01434 -0.004433 0.01524 -0.032 -0.058
0.02232 0.02742 0.001745 0.02097 0.02272 -0.03226 -0.02583 0.007103
0.02843 -0.01846 -0.007133 -0.01224 -0.02657 0.08154 0.00981 0.0885
-0.0652 0.03418 -0.0052 -0.01976 0.000116 0.01178 0.03035 -0.01996
-0.007595 -0.1065 0.0205 -0.12006 0.00836 0.002262 0.0259 -0.00702
-0.02383 0.04062 0.01147 0.01299 -0.0629 -0.002115 0.0505 0.09143
-0.04434 -0.01906 -0.00411 0.0423 -0.00792 -0.02333 0.00815 -0.0007615
0.00693 -0.04028 -0.00576 0.09216 0.01067 -0.04828 -0.01552 -0.04443
-0.04462 -0.0388 0.003983 -0.004158 0.004486 -0.00829 -0.004555 0.02629
0.00696 -0.1266 -0.013855 0.04153 -0.0959 -0.01585 0.01765 0.01984
0.007763 -0.04333 0.01325 -0.0555 0.07043 -0.221 -0.1328 0.11523
0.0506 -0.065 0.02116 0.01672 0.046 -0.005608 -0.02065 0.02621
-0.02843 0.0421 -0.2197 -0.0471 0.2017 0.0601 -0.01924 -0.001415
-0.01578 0.0734 -0.012955 -0.000725 0.003918 -0.01602 -0.052 -0.1857
0.2216 0.0896 0.005566 0.07385 0.05167 0.004967 0.03674 -0.02776
0.02936 0.00651 -0.003756 -0.06726 -0.506 0.24 0.058 0.0754
0.1742 0.04483 0.03096 0.04828 -0.0482 0.000718 0.01468 0.03195
-0.0626 -0.3994 -0.0713 -0.10614 0.0809 0.1669 -0.003443 0.1042
0.05096 -0.0354 -0.013405 -0.00979 0.03598 -0.007935 -0.0799 -0.1691
-0.1522 0.01651 0.07623 -0.006725 0.08264 0.06116 -0.0559 0.02075
0.009415 -0.00691 0.00731 0.093 -0.154 -0.1273 -0.05008 0.03035
-0.0792 0.04428 0.05133 -0.04095 -0.0161 0.011925 0.01074 0.02794
0.4934 0.07495 -0.04553 -0.03125 0.06082 -0.0999 -0.01624 0.03522
-0.01244 0.05557 0.03308 0.02122 0.03378 0.1271 -0.3914 -0.1092
-0.1666 0.008125 -0.1074 -0.03888 -0.02652 -0.01207 0.03256 0.0338
0.01326 -0.005653 1.517 0.842 -0.09973 0.06204 -0.1936 -0.1499
0.05438 0.04813 0.1058 0.03842 0.03293 0.01868 -0.007687 -0.2126
-0.3247 -0.1186 0.02632 0.2898 0.11035 -0.2339 0.12427 0.1152
00000000: c129 c527 0aa6 ef23 7fa8 f89d 6ca5 c723
00000010: 17a8 0d21 e3a3 6727 a99d 1130 66ad 2329
00000020: 601a 1c15 be27 871a 0f21 6819 5226 7c20
00000030: 779a c825 0730 76aa 9928 ad21 2623 2d1c
00000040: ae1f 46a7 9e24 5823 8a9c ce23 19a8 6dab
00000050: b725 0527 2617 5e25 d125 21a8 9da6 461f
00000060: 4727 baa4 4e9f 44a2 cda6 382d 0621 aa2d
00000070: 2cac 6028 539d 0fa5 9a07 0822 c527 1ca5
00000080: c79f d1ae 3f25 afaf 4820 a218 a126 309f
00000090: 1aa6 3329 df21 a722 07ac 5598 772a da2d
000000a0: ada9 e1a4 359c 6a29 0ea0 f9a5 2c20 3d92
000000b0: 191f 28a9 e69d e62d 7721 2eaa f2a3 b0a9
000000c0: b6a9 f7a8 141c 429c 981c 3fa0 aa9c bb26
000000d0: 211f 0db0 18a3 5129 23ae 0fa4 8524 1425
000000e0: f31f 8ca9 c922 1bab 822c 12b3 40b0 602f
000000f0: 7a2a 29ac 6b25 4824 e329 be9d 49a5 b626
00000100: 47a7 6429 08b3 07aa 7432 b12b eda4 cc95
00000110: 0aa4 b32c a2a2 f091 031c 1aa4 a8aa f1b1
00000120: 1733 bc2d b31d ba2c 9d2a 161d b428 1ba7
00000130: 8427 ab1e b19b 4eac 0cb8 ae33 6d2b d32c
00000140: 9331 bd29 ed27 2e2a 2baa e211 8423 1728
00000150: 02ac 64b6 90ac cbae 2d2d 5731 0d9b ab2e
00000160: 862a 88a8 dda2 03a1 9b28 10a0 1dad 69b1
00000170: dfb0 3a24 e12c e39e 4a2d d42b 28ab 5025
00000180: d220 139f 7c1f f42d eeb0 13b0 69aa c527
00000190: 12ad ab29 922a 3ea9 1fa4 1b22 8021 2727
000001a0: e537 cc2c d4a9 00a8 c92b 65ae 28a4 8228
000001b0: 5fa2 1d2b 3c28 6f25 5328 1130 43b6 fdae
000001c0: 55b1 2920 e0ae faa8 caa6 2ea2 2b28 5428
000001d0: ca22 ca9d 113e bc3a 62ae f12b 32b2 ccb0
000001e0: f62a 292a c52e eb28 3728 c824 df9f ceb2
000001f0: 32b5 97af bd26 a334 102f 7cb3 f42f 5f2f

linear_relu_stack.0.bias f2 [100]
0.1475 0.0868 -0.04715 -0.0291 0.04367 -0.1404 0.004276 -0.1266
0.3357 -0.006756 -0.1163 -0.07495 -0.1299 -0.11694 0.10535 -0.04752
0.0484 0.02985 -0.12494 0.03815 0.1632 -0.1512 -0.09607 0.4202
-0.1782 -0.153 -0.12 -0.0674 -0.0767 0.04257 0.1902 -0.11914
0.0648 0.01619 -0.03275 -0.03525 0.08704 -0.1338 0.03253 -0.11554
0.1483 0.3047 -0.04095 0.1048 0.479 0.11346 0.11487 -0.05606
-0.0908 0.0537 -0.06525 0.02153 -0.0633 -0.1231 -0.08167 -0.0212
-0.0644 0.4365 -0.10583 0.1367 0.1266 -0.03232 -0.08105 -0.0637
0.00298 -0.11884 0.02168 -0.1849 0.03217 -0.1209 0.0976 0.05594
0.159 -0.024 0.0489 -0.0454 -0.009766 -0.04056 0.0173 -0.05014
-0.00335 0.02916 -0.05203 0.0409 -0.1075 -0.05508 0.0324 0.01761
-0.07965 -0.2228 0.0373 -0.1115 0.0801 -0.00907 -0.0732 -0.05255
0.114 -0.07764 0.09515 -0.0817
00000000: b830 8e2d 09aa 73a7 9729 7eb0 611c 0db0
00000010: 5f35 eb9e 71af ccac 28b0 7caf be2e 15aa
00000020: 322a a427 ffaf e228 3931 d7b0 26ae b936
00000030: b4b1 e5b0 aeaf 50ac e9ac 7329 1632 a0af
00000040: 262c 2524 31a8 83a8 922d 48b0 2a28 65af
00000050: bf30 e034 3ea9 b52e aa37 432f 5a2f 2dab
00000060: d0ad e02a 2dac 8325 0dac e1af 3aad 6da5
00000070: 1fac fc36 c6ae 6030 0d30 23a8 30ad 14ac
00000080: 1a1a 9baf 8d25 ebb1 1e28 bdaf 3f2e 292b
00000090: 1731 25a6 422a d0a9 00a1 31a9 6e24 6baa
000000a0: dc9a 7727 a9aa 3c29 e1ae 0dab 2628 8224
000000b0: 19ad 21b3 c628 23af 202d a5a0 afac baaa
000000c0: 4c2f f8ac 172e 3bad

linear_relu_stack.2.weight f2 [100, 100]
-0.06757 0.02126 -0.02951 -0.05743 -0.002539 0.0136 -0.02925 0.0333
-0.009514 -0.1632 -0.00721 0.04135 0.014626 -0.03735 -0.007133 0.1473
0.0002227 0.08246 -0.039 -0.02188 0.10175 0.1247 -0.0045 -0.06335
0.05917 -0.01435 0.0983 -0.0872 -0.01145 -0.1714 -0.02196 0.000983
0.0824 -0.0668 0.025 0.01796 -0.1394 -0.0826 0.11597 -0.0566
0.1625 -0.0702 0.2336 0.06274 0.05325 0.02156 0.10535 -0.00853
-0.01042 -0.4116 -0.09125 0.0808 0.0749 0.0178 -0.03592 -0.0489
-0.03558 -0.03308 -0.04843 0.2407 -0.13 -0.01244 -0.05478 -0.35
-0.02397 0.02185 -0.5176 0.0637 0.02393 -0.02287 0.0604 -0.0505
-0.0689 0.4834 -0.01653 0.05005 -0.03497 0.01591 -0.137 0.0157
-0.06464 -0.09796 -0.05606 0.02145 -0.04904 0.0808 0.1277 -0.02185
0.05258 -0.05112 -0.4448 0.01585 -0.02528 0.0259 0.00457 -0.05988
-0.0639 0.159 -0.0754 0.11316 -0.01665 -0.1212 -0.02724 -0.05978
0.07684 -0.03065 -0.09344 -0.03586 0.0821 0.292 0.07007 -0.09955
-0.051 -0.1953 0.03412 -0.0694 -0.01429 -0.1421 -0.1824 0.1428
0.282 -0.0952 -0.03442 -0.08154 -0.0925 -0.06525 -0.10785 -0.01599
0.1472 -0.1711 0.05984 -0.0678 -0.02396 0.06525 -0.04318 0.01588
0.02017 -0.1649 -0.05615 -0.06097 0.1793 0.01428 0.11835 0.07996
0.1759 -0.1031 -0.0096 0.0896 -0.049 0.02751 -0.07654 0.185
0.02795 -0.05255 -0.02773 -0.2188 0.164 0.02098 0.00599 -0.1484
0.0848 0.010956 -0.013985 -0.0843 0.2228 0.02773 -0.1494 -0.04617
0.0514 0.07666 0.06805 -0.0704 -0.115 0.0487 0.02574 -0.10223
-0.02115 -0.0706 -0.07544 0.07837 -0.00228 -0.1027 -0.1545 -0.01037
0.00712 0.0478 0.03207 0.153 -0.04257 0.1459 -0.0995 -0.05264
0.132 -0.00412 -0.02158 0.0563 -0.006092 0.02467 0.0535 -0.1133
-0.01334 -0.00424 -0.06824 -0.07916 0.2222 -0.0941 -0.084 -0.00551
0.00918 -0.04892 0.03815 0.005096 -0.3662 0.01955 -0.0896 -0.1366
0.02551 0.1492 0.01674 0.0274 0.1416 -0.00863 0.03174 -0.03084
0.04675 0.039 0.0625 0.1941 0.03275 -0.05154 0.0576 -0.0833
0.00848 -0.1698 0.07837 -0.00792 0.1163 -0.0557 -0.1493 0.00239
0.08203 0.2003 -0.10944 -0.07544 0.214 -0.1157 0.03067 -0.0659
-0.0687 0.03674 -0.0705 0.01542 -0.045 -0.0295 0.004364 -0.09436
00000000: 53ac 7125 8ea7 5aab 3399 f722 7da7 4328
00000010: dfa0 39b1 629f 4b29 7d23 c8a8 4e9f b730
00000020: 4c0b 472d fea8 9aa5 832e fb2f 9c9c 0eac
00000030: 932b 59a3 4b2e 95ad dda1 7cb1 9fa5 0714
00000040: 462d 46ac 6626 9924 76b0 49ad 6c2f 3fab
00000050: 3331 7eac 7a33 042c d12a 8525 be2e 5ea0
00000060: 56a1 96b6 d7ad 2c2d cb2c 8f24 99a8 42aa
00000070: 8ea8 3ca8 33aa b433 29b0 5fa2 03ab 9ab5
00000080: 23a6 9825 24b8 142c 2026 dba5 bb2b 77aa
00000090: 69ac bc37 3ba4 682a 7aa8 1324 62b0 0524
000000a0: 23ac 45ae 2dab 7e25 47aa 2c2d 1630 98a5
000000b0: bb2a 8baa 1eb7 0f24 79a6 a126 ae1c aaab
000000c0: 17ac 1731 d3ac 3e2f 43a4 c2af f9a6 a7ab
000000d0: eb2c d9a7 fbad 97a8 412d ac34 7c2c 5fae
000000e0: 87aa 40b2 5e28 71ac 51a3 8cb0 d6b1 9230
000000f0: 8334 18ae 68a8 38ad ecad 2dac e7ae 18a4
00000100: b630 7ab1 a92b 57ac 22a6 2d2c 87a9 1124
00000110: 2a25 47b1 30ab ceab bd31 5023 932f 1e2d
00000120: a131 99ae eaa0 bc2d 46aa 0b27 e6ac ec31
00000130: 2827 baaa 19a7 00b3 3f31 5f25 221e c0b0
00000140: 6d2d 9c21 29a3 65ad 2133 1927 c8b0 e9a9
00000150: 942a e82c 5b2c 81ac 5caf 3c2a 9726 8bae
00000160: 6aa5 85ac d4ac 042d ab98 93ae f2b0 4fa1
00000170: 4a1f 1e2a 1b28 e530 73a9 ab30 5eae bdaa
00000180: 3930 389c 86a5 352b 3d9e 5126 d92a 40af
00000190: d5a2 579c 5eac 11ad 1c33 06ae 60ad a49d
000001a0: b320 43aa e228 381d dcb5 0125 bcad 5fb0
000001b0: 8826 c630 4924 0427 8830 6ba0 1028 e5a7
000001c0: fc29 fe28 002c 3632 3128 99aa 5f2b 55ad
000001d0: 5720 6fb1 042d 0ea0 712f 21ab c7b0 e518
000001e0: 402d 6932 01af d4ac d932 68af da27 38ac
000001f0: 66ac b428 83ac e523 c3a9 8da7 781c 0aae

linear_relu_stack.2.bias f2 [100]
-0.2537 0.655 0.3462 0.226 -0.2449 0.0373 0.2472 -0.1016
0.1337 -0.2844 -0.1148 0.12195 -0.06003 -0.05695 0.1897 -0.0763
-0.0909 -0.2295 -0.3208 0.08545 0.0732 -0.0581 0.2137 0.07043
0.01979 -0.2109 0.4119 0.09186 0.04572 -0.521 1.126 -0.4595
-0.03595 -0.1962 0.3076 -0.2021 -0.05408 -0.0519 0.03656 0.2091
-0.1897 0.5396 -0.6934 -0.2556 0.3037 -0.1283 -0.1791 0.299
-0.6445 -0.1642 0.6885 0.5127 0.8623 0.1562 -0.2852 0.05823
-0.2155 0.2761 0.0772 0.3264 -0.1757 0.5127 -0.03137 0.11
0.847 0.343 -0.0446 0.006172 0.05768 -0.2229 -0.0938 -0.4365
-0.03305 -0.2072 0.10175 0.05823 0.1705 -0.2015 -0.11646 -0.372
0.5864 -0.1636 0.5493 -0.266 0.5728 0.7324 -0.09326 0.1396
-0.1488 -0.0649 -0.2006 0.02496 0.10803 0.3489 -0.0188 -0.1703
0.04886 0.2334 0.0541 0.1187
00000000: 0fb4 3d39 8a35 3b33 d6b3 c628 e933 81ae
00000010: 4730 8db4 59af ce2f afab 4aab 1232 e2ac
00000020: d1ad 58b3 22b5 782d af2c 70ab d732 822c
00000030: 1125 c0b2 9736 e12d da29 2bb8 813c 5ab7
00000040: 9aa8 47b2 ec34 78b2 ecaa a5aa ae28 b132
00000050: 12b2 5138 8cb9 17b4 dc34 1bb0 bbb1 c934
00000060: 28b9 41b1 8239 1a38 e63a 0031 90b4 742b
00000070: e5b2 6b34 f12c 3935 9fb1 1a38 04a8 0a2f
00000080: c73a 7d35 b5a9 521e 622b 22b3 01ae fcb6
00000090: 3ba8 a1b2 832e 742b 7531 73b2 74af f4b5
000000a0: b138 3cb1 6538 42b4 9538 dc39 f8ad 7830
000000b0: c3b0 27ac 6bb2 6426 ea2e 9535 d0a4 73b1
000000c0: 412a 7833 ed2a 992f

linear_relu_stack.4.weight f2 [100, 100]
0.04175 0.02388 0.0726 -0.0765 -0.0952 -0.04535 -0.1301 -0.01881
-0.1864 -0.03061 -0.05905 -0.12476 0.0925 0.001052 0.1311 0.1466
0.07385 0.1792 -0.1006 0.1307 -0.0445 0.0318 0.04245 -0.1013
0.099 0.03726 -0.1559 0.1103 0.04105 0.06573 -0.03378 -0.1107
-0.1003 0.05774 -0.08484 0.0707 0.02603 -0.02142 -0.0675 -0.0816
-0.1954 0.0513 0.03864 0.03452 0.053 0.0291 -0.1051 -0.0736
-0.11884 -0.03506 0.0935 -0.01192 -0.1675 0.03915 -0.1726 -0.0554
0.1427 0.173 -0.01703 -0.05765 0.04745 -0.1703 -0.2976 -0.004093
-0.03687 -0.08234 -0.0689 0.0998 0.01094 -0.056 -0.1432 -0.07513
-0.02919 0.1112 -0.0282 0.0832 -0.11694 -0.0467 -0.003122 -0.05234
0.02592 -0.1636 -0.012146 -0.026 -0.1126 -0.0871 0.0555 0.1761
0.0814 -0.2861 -0.05008 -0.139 0.02025 0.0578 -0.1204 -0.01154
-0.2844 0.02911 0.1667 -0.1945 0.01988 0.1458 -0.06128 0.02736
0.0669 -0.0965 -0.0397 -0.1476 -0.05194 -0.2258 -0.11084 -0.06714
-0.07214 0.02824 0.00552 0.1097 -0.02556 -0.0789 0.05377 0.0213
0.0756 0.0242 0.1149 -0.02466 -0.04367 0.0701 -0.04868 0.02307
0.00976 -0.0374 -0.00688 0.0536 0.03973 -0.04706 0.1048 -0.05713
0.05682 -0.01802 0.03784 -0.007904 0.0365 -0.0889 0.1063 0.02301
-0.0811 0.04184 0.0007696 0.05862 0.02193 -0.015305 0.05417 0.05606
-0.03525 0.04382 0.04004 -0.03543 0.00339 -0.0961 -0.06335 -0.023
0.0477 0.007324 0.02264 -0.0647 -0.006504 0.02069 -0.0519 -0.07794
-0.0533 0.002388 -0.03412 -0.01788 0.05893 -0.4258 -0.03482 0.1279
-0.01156 -0.0649 -0.01941 -0.01546 -0.0169 -0.04846 -0.05865 -0.05728
0.0727 -0.014305 -0.001402 0.1129 0.00909 -0.09644 0.02765 0.00933
0.03053 -0.04037 0.02792 0.104 -0.08026 -0.00426 0.02692 -0.198
-0.0855 -0.0829 0.0441 -0.03876 -0.04114 -0.0692 0.0893 0.1172
0.1582 -0.05615 -0.1781 0.0672 0.094 -0.0001467 -0.03065 0.1122
0.0411 0.1047 0.04147 -0.05157 0.1886 0.000944 -0.09546 -0.1677
-0.1199 -0.02069 -0.06726 0.0635 0.05524 -0.011475 -0.0318 0.01834
-0.068 0.05505 0.06976 -0.101 -0.09894 -0.1063 0.1214 -0.03638
0.1215 -0.1236 -0.1918 -0.295 -0.1175 -0.09717 -0.01556 -0.159
-0.1235 -0.1031 0.1814 0.10004 0.0408 0.002968 0.242 -0.01646
00000000: 5829 1d26 a52c e5ac 18ae cea9 2ab0 d1a4
00000010: f7b1 d6a7 8fab fcaf ec2d 4f14 3230 b130
00000020: ba2c bc31 70ae 2f30 b2a9 1228 6f29 7cae
00000030: 562e c528 fdb0 0f2f 4129 352c 53a8 16af
00000040: 6bae 642b 6ead 862c aa26 7ca5 52ac 39ad
00000050: 41b2 912a f228 6b28 c92a 7327 baae b6ac
00000060: 9baf 7da8 fc2d 1aa2 5cb1 0329 86b1 17ab
00000070: 9130 8931 5ca4 61ab 132a 73b1 c3b4 319c
00000080: b8a8 45ad 69ac 632e 9a21 2bab 95b0 cfac
00000090: 79a7 1e2f 38a7 532d 7caf faa9 659a b3aa
000000a0: a326 3cb1 38a2 a8a6 35af 93ad 1b2b a331
000000b0: 362d 94b4 69aa 73b0 2f25 662b b5af e9a1
000000c0: 8db4 7427 5631 39b2 1725 aa30 d8ab 0127
000000d0: 482c 2dae 15a9 b9b0 a6aa 3ab3 18af 4cac
000000e0: 9eac 3b27 a71d 052f 8ba6 0dad e22a 7425
000000f0: d72c 3226 5b2f 50a6 97a9 7d2c 3baa e825
00000100: ff20 caa8 0c9f dc2a 1629 06aa b52e 50ab
00000110: 462b 9da4 d828 0ca0 ac28 b1ad ce2e e425
00000120: 31ad 5b29 4e12 812b 9d25 d6a3 ef2a 2d2b
00000130: 83a8 9c29 2029 89a8 f11a 27ae 0eac e3a5
00000140: 1b2a 801f cc25 24ac a99e 4c25 a5aa fdac
00000150: d3aa e418 5ea8 94a4 8b2b d0b6 75a8 1830
00000160: eba1 27ac f8a4 eaa3 54a4 34aa 82ab 55ab
00000170: a72c 53a3 be95 3a2f a720 2cae 1427 c720
00000180: d127 2ba9 2627 a82e 23ad 5d9c e426 56b2
00000190: 79ad 4ead a529 f6a8 44a9 6eac b72d 802f
000001a0: 1031 30ab b3b1 4d2c 042e cf88 d9a7 2e2f
000001b0: 4329 b32e 4f29 9aaa 0932 bc13 1cae 5eb1
000001c0: acaf 4ca5 4eac 102c 122b e0a1 12a8 b224
000001d0: 5aac 0c2b 772c 77ae 55ae ceae c52f a8a8
000001e0: c72f e9af 23b2 b8b4 85af 38ae f7a3 17b1
000001f0: e7af 99ae ce31 672e 3929 141a be33 37a4

linear_relu_stack.4.bias f2 [100]
-0.2101 0.0625 0.4973 0.0772 0.349 0.7046 -0.03613 -0.1375
1.246 0.1114 1.382 0.204 0.7056 0.3506 0.02391 0.9185
0.9097 -0.4634 0.658 0.524 0.3354 -0.1431 -0.07764 0.0093
0.3728 0.2413 0.2094 0.412 0.1204 0.339 2.395 1.008
-0.1599 0.799 -0.3506 1.067 -0.532 1.16 -0.316 0.6333
0.2354 0.04218 1.935 2.209 0.1747 -0.9033 0.1991 -0.6914
-0.5557 0.6104 0.2269 0.5376 0.1777 0.5522 -0.4963 0.8213
0.371 -0.3154 1.419 1.214 0.816 1.429 0.2573 0.7134
-0.8423 0.628 1.055 -0.2947 1.12 0.764 0.1405 0.1697
0.4758 0.829 -0.3403 0.3481 -0.1521 -0.1556 -0.3503 1.481
-0.4146 0.13 0.01451 0.9355 0.9766 0.7695 1.59 0.6265
0.349 0.862 2.014 0.5264 0.6074 1.3955 0.2732 0.4841
0.8994 0.3416 -0.4355 1.307
00000000: b9b2 002c f537 f12c 9635 a339 a0a8 66b0
00000010: fc3c 212f 873d 8732 a539 9c35 1f26 593b
00000020: 473b 6ab7 4439 3138 5e35 94b0 f8ac c320
00000030: f735 b933 b332 9836 b52f 6d35 ca40 083c
00000040: 1eb1 643a 9cb5 453c 42b8 a43c 0eb5 1139
00000050: 8833 6629 bd3f 6b40 9731 3abb 5f32 88b9
00000060: 72b8 e238 4333 4d38 b031 6b38 f1b7 923a
00000070: f035 0cb5 ad3d db3c 873a b73d 1e34 b539
00000080: bdba 0639 383c b7b4 7b3c 1d3a 7f30 6e31
00000090: 9d37 a23a 72b5 9235 deb0 fbb0 9bb5 ed3d
000000a0: a2b6 2930 6e23 7c3b d03b 283a 5c3e 0339
000000b0: 9635 e53a 0740 3638 dc38 953d 5f34 bf37
000000c0: 323b 7735 f8b6 3a3d

linear_relu_stack.6.weight f2 [45, 100]
0.00935 0.1664 0.1544 0.04523 0.04022 -0.0625 0.1948 -0.1871
-0.01415 -0.02777 0.006546 -0.06946 -0.00414 0.09155 0.1415 0.0004063
-0.04355 0.11456 -0.12494 -0.003986 0.1824 0.07275 -0.1316 -0.00312
-0.1194 0.11896 0.0318 -0.00319 0.07385 0.0783 0.1126 0.116
0.1388 0.02425 0.1085 -0.11646 -0.0114 0.05566 -0.0852 0.0608
-0.00983 -0.0804 -0.0668 0.04535 0.0767 -0.09607 -0.02448 -0.0528
0.03008 -0.05994 -0.02673 0.06525 0.011375 -0.02982 0.006023 0.2239
-0.03693 0.12177 -0.00818 0.00842 -0.02567 0.0522 0.1434 -0.0667
-0.1263 0.02475 -0.1646 -0.0421 0.0453 0.1978 -0.02534 -0.0003471
-0.0652 -0.0337 0.1678 0.03714 -0.07794 -0.010895 0.001882 0.0709
-0.06946 -0.03714 -0.0933 -0.02785 -0.05914 0.005238 0.07697 0.1092
0.01967 0.143 0.0529 -0.0875 0.0824 -0.0538 -0.0324 -0.003775
0.01936 0.1987 0.06143 -0.03137 -0.00731 0.06415 0.0509 0.01143
0.0626 -0.10223 0.0145 0.04443 0.01081 0.188 0.1516 -0.1278
-0.1372 0.02692 -0.09033 0.1202 0.1039 -0.1675 0.0853 -0.0805
-0.1385 -0.009705 0.10394 0.005947 0.02289 -0.08856 0.06274 0.0441
0.0295 0.1252 -0.07684 0.1768 0.1616 -0.08984 0.1053 -0.1891
-0.0825 0.03506 -0.008415 -0.0747 -0.1074 -0.201 0.05005 0.0906
0.03122 -0.008934 -0.03152 0.04065 0.076 -0.07117 -0.0556 -0.02701
0.01059 0.04913 0.00609 -0.02643 -0.1204 0.03014 -0.0892 -0.02495
-0.06143 0.00862 0.09357 0.009415 0.07007 -0.03058 0.05728 -0.0234
-0.127 0.005646 -0.0846 -0.1954 0.0343 0.00478 -0.02338 0.226
0.01892 -0.0882 -0.01627 -0.2954 0.01772 0.04538 0.02036 -0.105
0.09094 -0.0775 -0.02185 -0.04303 -0.1613 0.1254 -0.1254 -0.02298
0.1917 -0.01345 0.02965 -0.002783 0.1338 0.004536 0.0799 -0.1274
-0.07806 -0.002556 0.03705 0.1108 0.04193 0.010544 0.074 0.05527
-0.2292 0.1677 0.0665 -0.1776 -0.01952 0.0841 -0.1755 -0.005733
0.1243 0.0222 -0.11505 -0.1129 -0.2334 -0.2416 -0.03073 -0.04733
0.04117 -0.05954 -0.2095 -0.02344 0.0646 -0.022 0.11804 0.01865
0.03146 -0.06647 0.02199 -0.1343 -0.04242 0.1301 -0.1287 0.01958
0.03592 -0.0731 0.02185 0.01475 -0.02754 0.0132 0.03378 0.04422
0.0642 -0.2322 -0.3062 0.01127 0.004604 0.0441 0.01533 -0.04617
00000000: ca20 5331 f130 ca29 2629 00ac 3c32 fdb1
00000010: 3fa3 1ca7 b41e 72ac 3d9c dc2d 8730 a80e
00000020: 93a9 552f ffaf 159c d631 a82c 36b0 649a
00000030: a4af 9d2f 1228 889a ba2c 032d 352f 6d2f
00000040: 7130 3526 f22e 74af d6a1 202b 74ad c82b
00000050: 08a1 25ad 46ac ce29 e92c 26ae 44a6 c2aa
00000060: b327 acab d8a6 2d2c d321 a2a7 2b1e 2a33
00000070: baa8 cb2f 30a0 5020 92a6 ae2a 9730 45ac
00000080: 0bb0 5626 44b1 64a9 cc29 5432 7da6 b08d
00000090: 2cac 50a8 5f31 c128 fdac 94a1 b517 8a2c
000000a0: 72ac c1a8 f9ad 21a7 92ab 5d1d ed2c fd2e
000000b0: 0925 9330 c52a 9aad 462d e3aa 26a8 bb9b
000000c0: f524 5c32 dd2b 04a8 7c9f 1b2c 842a da21
000000d0: 022c 8bae 6d23 b029 8921 0432 da30 17b0
000000e0: 64b0 e426 c8ad b12f a62e 5cb1 762d 27ad
000000f0: 6fb0 f8a0 a72e 171e dc25 abad 042c a529
00000100: 8d27 0230 ebac a831 2c31 c0ad bd2e 0db2
00000110: 48ad 7d28 4fa0 c8ac e0ae 6fb2 682a cc2d
00000120: fe27 93a0 09a8 3429 dd2c 8eac 1eab eaa6
00000130: 6c21 4a2a 3c1e c4a6 b5af b727 b5ad 63a6
00000140: ddab 6a20 fd2d d220 7c2c d4a7 552b fea5
00000150: 10b0 c81d 6aad 41b2 6428 e51c fca5 3b33
00000160: d824 a5ad 2aa4 bab4 8924 cf29 3625 b8ae
00000170: d22d f6ac 98a5 82a9 29b1 0330 03b0 e2a5
00000180: 2232 e3a2 9727 b399 4830 a51c 1d2d 14b0
00000190: ffac 3c99 be28 172f 5e29 6621 bc2c 132b
000001a0: 56b3 5e31 422c afb1 ffa4 622d 9eb1 df9d
000001b0: f52f af25 5daf 3aaf 78b3 bbb3 dea7 0faa
000001c0: 4529 9fab b4b2 00a6 222c a2a5 8e2f c624
000001d0: 0728 41ac a125 4cb0 6ea9 2a30 1eb0 0325
000001e0: 9928 aeac 9825 8d23 0da7 c222 5328 a929
000001f0: 1c2c 6eb3 e6b4 c521 b71c a529 d923 e9a9

linear_relu_stack.6.bias f2 [45]
-1.162 -2.377 -1.563 -0.6494 -0.7915 -0.549 -0.748 -1.173
-0.01059 -1.162 -0.4858 -0.2328 1.602 1.2295 -0.681 0.12024
-0.8657 0.305 1.046 0.1071 1.0205 0.9263 0.186 1.275
-0.531 1.015 0.599 1.505 1.398 1.199 0.4956 -0.1796
0.2383 -1.546 0.3125 0.7563 -0.3342 -0.8193 1.235 -0.8276
0.74 -0.773 -0.4321 -0.4966 1.476
00000000: a6bc c1c0 41be 32b9 55ba 64b8 fcb9 b1bc
00000010: 6ca1 a6bc c6b7 73b3 683e eb3c 73b9 b22f
00000020: edba e134 2f3c db2e 153c 693b f431 1a3d
00000030: 3fb8 0f3c cb38 053e 983d cc3c ee37 bfb1
00000040: a033 2fbe 0035 0d3a 59b5 8eba f13c 9fba
00000050: ec39 2fba eab6 f2b7 e73d
